examples/models/lunar/model.pt (torch, 47885 bytes, 12 tensors)

logstd f4 [1, 4]
1.0 1.0 1.0 1.0
00000000: 0000 803f 0000 803f 0000 803f 0000 803f

weight f4 [64, 8]
-0.03920389 -0.8012933 0.2209994 -0.14794384 0.4825393 0.73205155 -0.6731273 0.24290714
0.7619454 0.35067967 0.40567234 -0.6664514 -0.75065494 0.5440532 -0.37450993 0.7720703
-0.17475621 -0.4351029 0.28343472 0.90537643 -0.64602876 -0.24962053 -0.8655188 0.34375608
0.18580319 -0.025802922 -0.83059114 0.38449264 0.7642375 0.3714746 0.26015788 0.5006163
-0.6031514 -0.3605036 0.0024061438 -0.66868323 -0.41340998 -0.7585902 -0.7958995 0.2286678
-0.114739485 0.49238792 0.22879945 0.23275174 -0.29710913 -0.29781199 -0.8146416 -0.26465222
-0.6780033 0.48389494 0.39180487 0.71223164 0.592004 0.09389726 0.6625312 0.5004054
0.38155547 -0.37012815 -0.3464067 0.5954953 -0.43836778 -0.26686192 0.29068947 0.7764591
0.0037335574 -0.59689957 -0.10007048 0.44866103 -0.49553236 -0.02379623 0.6769533 -0.09689509
-0.603689 0.72380275 -0.35928643 -0.19435363 -0.75084335 -0.28736514 0.6981534 -0.6054701
0.6780884 -0.08362022 0.24194902 -0.58777905 -0.7796537 0.34347162 -0.62374485 -0.109584324
0.8747934 0.45120582 0.3161757 -0.7985355 0.12702823 -0.345344 0.26569057 -0.48987845
-0.09623142 0.29663217 -0.69397163 0.053496633 1.0146811 0.20019665 -0.39891428 0.8182928
0.45222187 0.33074066 0.53005695 -0.07341236 0.7164356 -0.29198638 0.67965776 -0.78888124
-0.33794713 0.15857832 -0.52054566 -0.06574577 0.22499458 0.46229592 -0.684665 0.6779237
-0.4928791 -0.3260119 0.38590452 -0.6855222 0.7112451 0.8367055 -0.28268224 -0.41827685
-0.6526941 -0.7181892 0.55420935 0.4521454 0.6048487 0.76998377 -0.4000265 0.26602036
0.65621704 0.8632557 -0.20448361 0.35636905 0.025985487 -0.9683932 0.21034247 0.52581227
0.6768968 -0.4861225 0.48907778 -0.3826567 0.47670904 -0.056151405 0.35573524 -0.6081652
0.0107045565 -0.38535267 0.7535329 -0.55243266 0.4790484 -0.40707654 0.26869124 0.2264154
0.19058575 0.3612915 0.73150647 0.0894934 0.26405504 0.62006325 -0.42309222 0.31679517
-0.45386553 -0.19351678 -0.604628 -0.33145365 -0.55490816 0.4733374 0.710097 -0.07549782
-0.12944639 -0.50254303 0.21425778 0.1909521 0.13734972 -0.12841761 0.6076086 0.57102716
-0.75932664 -0.75755787 -0.59208655 0.413519 -0.36393294 0.46162668 0.38991305 -0.32123443
-0.4412223 0.38287666 0.75999856 0.19285318 -0.98340625 -0.31368318 -0.81501126 -0.8127382
-0.2568475 0.73294234 0.83334404 -0.6196376 1.0505193 0.7458199 -0.00879955 -0.30032888
-0.06538794 0.033867948 0.7070736 -0.9713438 -0.68588716 -0.7407386 -0.08310619 -0.5855279
-0.2362655 0.87111986 -0.52956086 0.63547796 0.39061114 0.38735244 -0.7917918 -0.31713337
-0.36809334 -0.48882097 0.43152815 0.35094973 0.66718286 -0.15201741 -0.20472261 -0.38494968
-0.10389463 0.73240393 0.019158978 -0.03302716 -0.9722995 -0.64181143 -0.27272725 0.6578999
0.67793727 0.748627 0.051706005 0.5892351 -0.72075826 -0.920346 0.30957282 0.1977667
-0.046898607 -0.43917772 -0.5048073 -0.029897803 -0.605914 0.17521782 0.8874173 0.5352758
00000000: 4294 20bd 8f21 4dbf ab4d 623e 977e 17be
00000010: 640f f73e bb67 3b3f 1252 2cbf a6bc 783e
00000020: db0e 433f 498c b33e 49b4 cf3e 8f9c 2abf
00000030: ec2a 40bf 1247 0b3f c4bf bfbe 66a6 453f
00000040: 4bf3 32be cfc5 debe 5b1e 913e c0c6 673f
00000050: 2462 25bf 869c 7fbe a492 5dbf cc00 b03e
00000060: 3143 3e3e a660 d3bc 9fa1 54bf 38dc c43e
00000070: 12a5 433f eb31 be3e 6a33 853e 6428 003f
00000080: 2168 1abf ee93 b8be 65b0 1d3b d32e 2bbf
00000090: 79aa d3be f832 42bf 12c0 4bbf e427 6a3e
000000a0: 89fc eabd 451a fc3e 674a 6a3e 7956 6e3e
000000b0: b01e 98be d07a 98be 5a8c 50bf 7f80 87be
000000c0: a091 2dbf 14c1 f73e a69a c83e d054 363f
000000d0: 938d 173f 354d c03d a59b 293f 911a 003f
000000e0: 3d5b c33e 7081 bdbe 385c b1be 6172 183f
000000f0: be71 e0be 20a2 88be 40d5 943e 06c6 463f
00000100: b3ae 743b 69ce 18bf c0f1 ccbd e6b6 e53e
00000110: 6bb6 fdbe 50f0 c2bc d04c 2d3f ef70 c6bd
00000120: 5d8b 1abf 234b 393f 64f4 b7be a304 47be
00000130: 4537 40bf 8621 93be 2eba 323f 1700 1bbf
00000140: 3497 2d3f 1441 abbd 7cc1 773e b078 16bf
00000150: 6397 47bf 83db af3e bead 1fbf bf6d e0bd
00000160: 76f2 5f3f 7304 e73e c8e1 a13e d36c 4cbf
00000170: b013 023e eed0 b0be 9808 883e 59d1 fabe
00000180: fb14 c5bd 2ce0 973e 20a8 31bf 491f 5b3d
00000190: 12e1 813f 5a00 4d3e 7e3e ccbe a37b 513f
000001a0: a089 e73e d756 a93e d0b1 073f 3859 96bd
000001b0: 5368 373f 3d7f 95be 0dfe 2d3f 1ff4 49bf
000001c0: 6807 adbe 5b62 223e 7b42 05bf b8a5 86bd
000001d0: fb64 663e 0db2 ec3e 3546 2fbf 688c 2d3f
000001e0: a65a fcbe 08eb a6be 4795 c53e 627e 2fbf
000001f0: 2914 363f 5532 563f babb 90be 6228 d6be
00000200: f616 27bf 3fdb 37bf aae0 0d3f 9a7f e73e
00000210: 5dd7 1a3f a81d 453f 46d0 ccbe d233 883e
00000220: d7fd 273f 53fe 5c3f 2764 51be 0176 b63e
00000230: 84df d43c 9ee8 77bf 0464 573e a29b 063f
00000240: 1c49 2d3f 0ce5 f8be 6768 fa3e 94eb c3be
00000250: 3513 f43e 04ff 65bd ee22 b63e b7b0 1bbf
00000260: 2a62 2f3c f24c c5be 88e7 403f 3a6c 0dbf
00000270: d545 f53e 566c d0be e691 893e 70d9 673e
00000280: e928 433e 33fb b83e 0244 3b3f 5148 b73d
00000290: 3932 873e 77bc 1e3f 8b9f d8be fa32 a23e
000002a0: 1061 e8be 4329 46be e7c8 1abf 4bb4 a9be
000002b0: 760e 0ebf 4859 f23e ebc8 353f 9a9e 9abd
000002c0: 988d 04be a9a6 00bf 6466 5b3e f388 433e
000002d0: 68a5 0c3e e87f 03be 3d8c 1b3f d62e 123f
000002e0: 3b63 42bf 50ef 41bf fc92 17bf c3b8 d33e
000002f0: 6b55 babe 555a ec3e afa2 c73e d778 a4be
00000300: e4e7 e1be 6908 c43e 448f 423f 4e7b 453e
00000310: 83c0 7bbf 159b a0be 94a4 50bf 9c0f 50bf
00000320: 8481 83be 1ca2 3b3f 0956 553f 92a0 1ebf
00000330: 6b77 863f 0eee 3e3f fd2b 10bc b5c4 99be
00000340: 1dea 85bd 1eb9 0a3d c702 353f fda9 78bf
00000350: 4d96 2fbf 0ba1 3dbf 9433 aabd 28e5 15bf
00000360: 95ef 71be b601 5f3f 4d91 07bf afae 223f
00000370: 2ffe c73e 0f53 c63e deb2 4abf 4e5f a2be
00000380: bb76 bcbe be46 fabe 42f1 dc3e afaf b33e
00000390: 7fcc 2a3f 74aa 1bbe cea2 51be 2018 c5be
000003a0: b5c6 d4bd d37e 3b3f 4af3 9c3c 7d47 07bd
000003b0: 9fe8 78bf c14d 24bf e8a2 8bbe 216c 283f
000003c0: 4c8d 2d3f 05a6 3f3f adc9 533d 1dd8 163f
000003d0: 9d83 38bf cc9b 6bbf 5480 9e3e 5b83 4a3e
000003e0: c118 40bd e7db e0be 0d3b 01bf 3dec f4bc
000003f0: 2e1d 1bbf 4d6c 333e c82d 633f d607 093f

bias f4 [64]
-0.008085508 0.114821814 0.084237225 0.017783582 0.12859066 0.12388267 0.06832393 0.036348607
0.018069265 0.073149726 0.18103202 0.11710505 0.051870972 0.06965815 0.10283419 0.1681408
-0.012068864 0.069312245 0.1392182 0.11892332 0.099329785 0.044993054 0.01246996 0.0182522
0.19653961 0.07909835 0.15093836 0.094574094 0.062758975 0.13016547 0.027077492 0.06459165
0.099274404 0.071379825 0.16543686 0.12026006 0.18506135 0.15494725 0.059487816 0.16372007
0.1435017 0.062403552 0.107434995 0.037209913 0.09529963 0.08508784 0.12214941 0.13545042
0.09300665 0.11606748 0.065505296 0.09581666 0.11376421 0.061181694 0.14237131 -0.0080333175
0.13535056 0.100668125 -0.02173278 0.12318355 0.0021950155 0.10927568 0.11102972 0.106246404
00000000: 1479 04bc b327 eb3d 9184 ac3d e0ae 913c
00000010: 45ad 033e 33b6 fd3d 6bed 8b3d 47e2 143d
00000020: ff05 943c 86cf 953d 7560 393e c6d4 ef3d
00000030: a876 543d efa8 8e3d bb9a d23d 1a2d 2c3e
00000040: 7cbc 45bc 94f3 8d3d 378f 0e3e 128e f33d
00000050: 6a6d cb3d a34a 383d ce4e 4c3c a385 953c
00000060: ae41 493e 51fe a13d 968f 1a3e 10b0 c13d
00000070: c787 803d 194a 053e 9ed1 dd3c a148 843d
00000080: 6150 cb3d 962f 923d 4868 293e e84a f63d
00000090: b980 3d3e 7eaa 1e3e 7fa9 733d 3ca6 273e
000000a0: 1cf2 123e de9a 7f3d e106 dc3d 6c69 183d
000000b0: 742c c33d 8942 ae3d 7829 fa3d 84b3 0a3e
000000c0: 457a be3d c9b4 ed3d a427 863d 863b c43d
000000d0: 36fd e83d a899 7a3d c9c9 113e 2d9e 03bc
000000e0: 5699 0a3e 172b ce3d f108 b2bc a847 fc3d
000000f0: 40da 0f3b edcb df3d 8d63 e33d b797 d93d

weight f4 [64, 64]
0.19894277 -0.08140698 0.21002981 -0.14200535 0.2526027 -0.1269256 0.101965874 -0.21539444
0.17015924 -0.038293112 -0.14243199 0.22352643 -0.13796493 0.095467374 -0.049098004 -0.42647186
-0.042364787 0.120584875 -0.12029065 0.20403978 -0.021881629 -0.13242936 0.034383293 -0.23477389
0.26771048 -0.12705223 0.4153307 0.045123823 -0.30567014 0.30766797 0.10296135 0.051743496
-0.36458713 0.35850275 0.17274025 0.29491028 -0.0061687175 0.34569845 -0.33271798 0.17831624
0.28471527 -0.17457044 -0.23154078 0.051425636 0.11493938 -0.022723915 -0.26356104 0.23599222
-0.14737846 -0.039054547 -0.16014837 -0.21597601 -0.03690033 -0.14844882 0.05965751 -0.27485558
0.10929677 -0.03732361 -0.21003844 0.24204274 0.13410395 0.099397905 0.20171657 -0.0055342885
-0.21853314 -0.21922159 -0.14901498 0.33302593 -0.2978051 0.28500614 -0.010297206 0.166593
-0.35454905 -0.14830677 0.18931334 -0.17620456 0.040777445 0.2681209 -0.15251186 -0.035216067
-0.27595845 0.097159594 -0.2653071 0.0549336 0.1392493 -0.11310396 -0.28582227 -0.13180879
0.29030067 0.12798521 -0.29900202 0.4914261 0.11242255 -0.09802354 -0.22111845 -0.09765579
-0.017035648 0.16024807 -0.050600834 0.22945799 0.05530388 -0.20134649 0.21331044 0.082345225
0.044082947 -0.10595596 0.26589423 -0.17236306 -0.100998044 0.30081376 0.10096554 -0.103957385
-0.23884936 0.20216969 0.27515924 0.06699359 0.0040461104 0.25255173 -0.11239758 -0.19949701
-0.12634751 0.4024527 -0.02440652 -0.16762254 0.114614114 0.06332259 -0.14843018 -0.041096527
0.16906749 -0.02016625 -0.10170574 0.096995376 0.2574112 0.302621 -0.026845694 -0.10956725
0.07697795 0.13897881 0.4642774 0.3320417 -0.31163976 0.009972822 0.091568284 -0.20332365
-0.22068584 -0.12042455 -0.053763937 0.17782855 -0.26813325 0.10647365 -0.24317855 0.07133285
0.0054126573 -0.3044321 0.4534551 -0.38361254 -0.07348178 0.13429838 0.35121045 0.022847826
-0.01378663 -0.1032611 0.15960567 -0.07579611 0.30199316 -0.11035539 -0.18571223 -0.13829406
-0.12607482 0.070276685 0.22690824 -0.015179106 0.16010275 0.18504196 0.14184639 0.105775654
-0.1195589 0.07308821 0.34009075 -0.27676326 0.17221117 -0.22489697 0.19722313 0.23326385
0.17062649 0.20610592 -0.0986703 0.18834418 -0.17017384 0.16125244 0.3777086 -0.28685948
0.2214243 0.2943172 0.04748082 -0.12367582 0.17229521 0.18733853 0.15886621 -0.35394678
0.06955396 -0.05540152 0.13394636 0.06209367 -0.23305503 0.32565618 0.26377416 0.08962274
-0.01162548 0.2780909 -0.058183674 0.22494441 0.18304099 -0.1007666 0.19093457 0.01994356
0.28282344 -0.28195226 0.07945743 -0.24886733 -0.34078684 -0.056080587 -0.121057495 0.26001725
0.2079241 0.23898429 -0.1526687 0.17720377 0.2793244 0.11653724 -0.020417707 0.049654998
-0.13681543 0.24242291 0.25356072 0.23658848 0.25468236 -0.41304317 0.019731186 -0.11237608
0.07212971 -0.058675483 -0.15314054 0.14546496 -0.2797357 -0.24298038 -0.15115406 -0.24805875
-0.0005322462 0.19278093 0.12667267 0.0700752 0.1686244 -0.20746045 -0.22809018 -0.36139622
00000000: a7b7 4b3e b4b8 a6bd 0e12 573e da69 11be
00000010: 2455 813e c9f8 01be 7cd3 d03d 5c90 5cbe
00000020: 393e 2e3e 3dd9 1cbd b1d9 11be 1de4 643e
00000030: ae46 0dbe 6684 c33d fd1a 49bd 855a dabe
00000040: b386 2dbd 34f5 f63d f25a f6bd ceef 503e
00000050: 1a41 b3bc 909b 07be 7fd5 0c3d 9168 70be
00000060: 5911 893e fb19 02be 3aa6 d43e c2d3 383d
00000070: cc80 9cbe a886 9d3e 66dd d23d fdf0 533d
00000080: 2aab babe ac8d b73e d2e2 303e 7bfe 963e
00000090: f422 cabb 63ff b03e 035a aabe 8898 363e
000000a0: 33c6 913e 98c2 32be 0719 6dbe b0a3 523d
000000b0: 5665 eb3d 8127 babc 79f1 86be f2a7 713e
000000c0: 61ea 16be a9f7 1fbd effd 23be d128 5dbe
000000d0: cd24 17bd f802 18be 6f5b 743d dfb9 8cbe
000000e0: fcd6 df3d a4e0 18bd 5114 57be 0dda 773e
000000f0: 8c52 093e 2191 cb3d ca8e 4e3e fa58 b5bb
00000100: 27c7 5fbe a07b 60be 6297 18be 6082 aa3e
00000110: e979 98be 53ec 913e 9db5 28bc 5b97 2a3e
00000120: 7487 b5be bbdd 17be 5bdb 413e f86e 34be
00000130: 4006 273d 2547 893e 122c 1cbe b93e 10bd
00000140: 6d4a 8dbe 9cfb c63d 55d6 87be 0e02 613d
00000150: 5e97 0e3e 0da3 e7bd 4c57 92be e2f8 06be
00000160: 4aa2 943e 8e0e 033e cb16 99be 349c fb3e
00000170: cb3d e63d 91c0 c8bd e06c 62be c2ff c7bd
00000180: 588e 8bbc 1218 243e d242 4fbd 09f7 6a3e
00000190: 5286 623d c62d 4ebe 0d6e 5a3e 9da4 a83d
000001a0: 5290 343d 70ff d8bd 4a23 883e f17f 30be
000001b0: 10d8 cebd 4304 9a3e 05c7 ce3d 9ce7 d4bd
000001c0: ed94 74be 9205 4f3e ace1 8c3e ef33 893d
000001d0: 3c95 843b 764e 813e b430 e6bd f248 4cbe
000001e0: 3e61 01be 480e ce3e 2ff0 c7bc 3ea5 2bbe
000001f0: ceba ea3d 46af 813d 15fe 17be d554 28bd
00000200: 0720 2d3e b133 a5bc 194b d0bd 83a5 c63d
00000210: 67cb 833e 24f1 9a3e 80eb dbbc cb64 e0bd
00000220: 9ea6 9d3d 7650 0e3e c4b5 ed3e 5f01 aa3e
00000230: 3f8f 9fbe 0c65 233c 2788 bb3d 1334 50be
00000240: 78fb 61be 25a1 f6bd 9337 5cbd b018 363e
00000250: c348 89be db0e da3d cc03 79be f516 923d
00000260: a95c b13b 86de 9bbe 442b e83e dd68 c4be
00000270: 9e7d 96bd 8485 093e dbd1 b33e 5d2b bb3c
00000280: 51e1 61bc 8e7a d3bd ab6f 233e fe3a 9bbd
00000290: d99e 9a3e 0202 e2bd 592b 3ebe f59c 0dbe
000002a0: c219 01be 39ed 8f3d a25a 683e c9b1 78bc
000002b0: faf1 233e a47b 3d3e 2e40 113e e8a0 d83d
000002c0: 4cdb f4bd 45af 953d 6020 ae3e eab3 8dbe
000002d0: 2058 303e 644b 66be dcf4 493e b8dc 6e3e
000002e0: b6b8 2e3e 6e0d 533e a713 cabd 4cdd 403e
000002f0: 0d42 2ebe 5c1f 253e 0663 c13e 3fdf 92be
00000300: 0dbd 623e beb0 963e 407b 423d c049 fdbd
00000310: 286e 303e acd5 3f3e d3ad 223e 8338 b5be
00000320: 4e72 8e3d b4ec 62bd 3c29 093e ef55 7e3d
00000330: faa5 6ebe 68bc a63e 680d 873e 218c b73d
00000340: cc78 3ebc ee61 8e3e 0152 6ebd d457 663e
00000350: 196f 3b3e b85e cebd 5a84 433e ad60 a33c
00000360: 3cce 903e 0c5c 90be 94ba a23d 14d7 7ebe
00000370: 9d7b aebe c2b4 65bd feec f7bd fb20 853e
00000380: 0eea 543e 4cb8 743e 2f55 1cbe e874 353e
00000390: 9c03 8f3e 14ab ee3d 0943 a7bc 0a63 4b3d
000003a0: 5819 0cbe b63d 783e b6d2 813e 4044 723e
000003b0: ba65 823e 657a d3be 4ca3 a13c 6e25 e6bd
000003c0: beb8 933d b455 70bd e0d0 1cbe c4f4 143e
000003d0: 8539 8fbe d9cf 78be 21c8 1abe 1d03 7ebe
000003e0: 7086 0bba 5d68 453e 7bb6 013e 9683 8f3d
000003f0: e0ab 2c3e 8370 54be 7990 69be ed08 b9be

bias f4 [64]
0.11959268 0.05245873 0.116451055 0.092490114 0.1031214 0.07645063 0.13962929 0.072691634
0.019054145 0.08514473 0.03746003 -0.01644897 0.053310268 0.09899029 0.13777989 0.080299094
0.06333248 0.027484642 0.11648188 0.11087831 0.09279503 0.09890485 0.12007222 0.095663
0.030588694 0.046268716 0.088030234 0.0978214 0.11615115 0.07017655 0.1422577 0.100422174
0.05620578 0.037166394 0.106701486 0.004100772 0.114390604 0.11905466 0.08805194 0.10595334
0.02606719 0.05072676 0.08370246 0.10046059 0.054828394 -0.07354457 0.058132626 0.04625931
0.12282782 -0.030288663 0.087806515 0.05831376 0.1279068 -0.0051389127 0.089419276 0.127058
0.115547694 0.10522457 0.07264595 0.086713776 0.06597113 0.09775287 0.11363026 0.090409696
00000000: 02ed f43d f7de 563d e47d ee3d 756b bd3d
00000010: 5031 d33d 2692 9c3d fbfa 0e3e 5adf 943d
00000020: 7017 9c3c 5c60 ae3d b06f 193d febf 86bc
00000030: de5b 5a3d 6cbb ca3d 2c16 0d3e da73 a43d
00000040: 76b4 813d 7927 e13c 0d8e ee3d 2b14 e33d
00000050: 520b be3d a08e ca3d 6de8 f53d f7ea c33d
00000060: 2495 fa3c 4484 3d3d 3249 b43d 9656 c83d
00000070: a7e0 ed3d b9b8 8f3d 01ac 113e 24aa cd3d
00000080: 0838 663d ca3b 183d 4f86 da3d c55f 863b
00000090: 9f45 ea3d eed2 f33d 9354 b43d 11fe d83d
000000a0: dc8a d53c ddc6 4f3d 326c ab3d 48be cd3d
000000b0: bd93 603d 899e 96bd 7a1c 6e3d 677a 3d3d
000000c0: 278d fb3d ee1f f8bc e7d3 b33d 69da 6e3d
000000d0: 00fa 023e 5364 a8bb 7421 b73d 7e1b 023e
000000e0: 45a4 ec3d fb7f d73d 66c7 943d fe96 b13d
000000f0: df1b 873d a832 c83d fbb6 e83d b828 b93d

weight f4 [4, 64]
-0.00087043527 0.018278828 -0.078346156 -0.07971662 0.10855203 -0.099076174 -0.09451326 -0.0396557
0.022323044 -0.055909827 0.0057943542 0.07222761 0.04198146 -0.001704791 0.10333496 0.03379831
0.06687547 0.059578877 -0.018495852 -0.08250713 -0.10226385 0.048677836 -0.0996545 -0.032387566
0.012821292 -0.03725663 -0.10566467 -0.05131854 0.12055034 -0.05091386 -0.108660676 -0.08118262
0.09610969 0.1233488 -0.08567766 0.049000617 -0.092240915 -0.08679211 -0.084542185 -0.08508442
0.055788927 0.094691 -0.08580264 -0.10402083 -0.081257336 0.061370865 -0.02205226 -0.06345585
-0.10459235 -0.0018041153 -0.08590046 -0.014970009 -0.067267776 -0.006210072 0.080376565 -0.08437341
-0.091990225 0.09834982 -0.08834828 -0.004166628 -0.02858327 -0.102329485 -0.11180791 0.060843933
0.1280533 -0.109968916 0.08588523 0.057662293 0.040764526 -0.0797252 0.07576533 -0.092498556
-0.017902805 -0.141268 -0.12944596 -0.017000979 -0.12804684 0.1623092 -0.015909204 -0.097499564
-0.014948062 -0.08931269 -0.021194886 -0.018599287 -0.018317802 0.17878234 -0.03012726 0.0558984
-0.13243967 -0.06363768 0.0833889 0.009823851 -0.017827595 0.014444095 -0.003428279 -0.21172138
-0.018244954 -0.01075885 -0.03427616 -0.06270475 -0.15274751 0.07128427 -0.16968073 0.13162483
-0.0993243 -0.013737153 -0.19708474 -0.059544314 -0.052420564 0.015686758 -0.16167904 -0.03103889
0.1452383 0.03653032 -0.09419559 -0.13322091 0.13151436 -0.017351044 -0.031685542 0.12963976
0.08988926 -0.0127586005 -0.16424593 -0.09920578 0.11105313 -0.02062035 0.04625651 0.14238271
-0.003847424 -0.1588986 0.056913633 0.042268705 -0.21107933 0.07193188 0.05929034 0.11525505
-0.10029823 0.104877 0.012680496 -0.028755967 -0.06215433 -0.025206357 -0.14372039 -0.0828635
-0.090076305 -0.03511375 0.12317721 0.08952612 0.07695713 -0.11061708 0.10443203 0.017290857
-0.048133682 0.07951709 0.016374286 0.099013016 -0.09137291 0.05756352 0.18289484 0.0309306
-0.028087327 -0.08361918 0.06860577 -0.06628877 0.12322527 0.014655288 0.108921826 0.013294601
-0.057782106 -0.116800375 0.10701109 0.09053686 0.053813137 -0.0748285 -0.057400484 0.0047911243
0.026639868 0.0008103763 0.06358594 -0.03271935 0.0019997286 0.018888183 -0.10932173 -0.0053422623
0.07731119 -0.069918044 0.10549643 -0.16498032 -0.023677224 0.06541236 0.06054427 -0.1212061
-0.15083025 0.1651025 -0.12607947 -0.057921857 0.019254938 0.06774233 -0.10969583 -0.0074332734
0.11775145 0.055901296 0.07569808 -0.0068026343 0.101532914 -0.1922562 0.019811748 0.07692038
-0.019268127 0.037928723 -0.12401479 -0.033052724 -0.002265286 -0.14981326 -0.018306723 -0.056258626
0.11316655 -0.0018133278 -0.02980297 -0.1112903 -0.010679298 -0.045208003 -0.15225735 0.17850287
-0.047053937 -0.05806436 0.017622523 0.047035575 0.0699406 -0.047039337 0.09064675 -0.13601579
0.05332067 -0.013660683 0.11938014 0.0279956 0.0468008 0.019974321 0.16770433 0.06404047
-0.14987469 -0.028328849 0.07646382 0.11635406 -0.12886 0.0149461515 0.0122111095 -0.07532507
-0.13792302 -0.024918346 0.08092278 0.18174641 -0.077164136 0.023954071 -0.04662905 -0.10579381
00000000: ec2d 64ba 7bbd 953c f373 a0bd 7842 a3bd
00000010: 8750 de3d 73e8 cabd 2b90 c1bd 046e 22bd
00000020: d1de b63c b401 65bd 91de bd3b 12ec 933d
00000030: c0f4 2b3d 4b73 dfba 48a1 d33d 1970 0a3d
00000040: 02f6 883d fb08 743d 9d84 97bc 80f9 a8bd
00000050: b66f d1bd 6962 473d a917 ccbd d3a8 04bd
00000060: 6510 523c 689a 18bd b866 d8bd 6433 52bd
00000070: 19e3 f63d 0d8b 50bd 7d89 debd 1343 a6bd
00000080: 28d5 c43d 4c9e fc3d c577 afbd dfb4 483d
00000090: cee8 bcbd 10c0 b1bd 7424 adbd be40 aebd
000000a0: ee82 643d 5bed c13d 4bb9 afbd df08 d5bd
000000b0: 3f6a a6bd 0460 7b3d f1a6 b4bc 24f5 81bd
000000c0: 8434 d6bd 1078 ecba 95ec afbd c544 75bc
000000d0: b0c3 89bd dc7d cbbb 789c a43d f7cb acbd
000000e0: 5f65 bcbd a16b c93d f1ef b4bd 3588 88bb
000000f0: 7627 eabc 1f92 d1bd 8cfb e4bd 7d37 793d
00000100: 6720 033e 6237 e1bd 98e4 af3d 4c2f 6c3d
00000110: b4f8 263d f746 a3bd da2a 9b3d e26f bdbd
00000120: e7a8 92bc 8fa8 10be 7b8d 04be a345 8bbc
00000130: b61e 03be 6234 263e 0554 82bc daad c7bd
00000140: b7e8 74bc 92e9 b6bd e6a0 adbc 885d 98bc
00000150: 370f 96bc b812 373e 72cd f6bc b8f5 643d
00000160: 449e 07be 7954 82bd cdc7 aa3d 38f4 203c
00000170: 2d0b 92bc eda6 6c3c faac 60bb 7dcd 58be
00000180: 7176 95bc e345 30bc 2965 0cbd 596b 80bd
00000190: d869 1cbe 7dfd 913d c9c0 2dbe a9c8 063e
000001a0: 8a6a cbbd cc11 61bc 95d0 49be bde4 73bd
000001b0: f2b6 56bd 8481 803c 318f 25be 4545 febc
000001c0: 59b9 143e d1a0 153d 9ee9 c0bd 106b 08be
000001d0: b3ab 063e c723 8ebc b3c8 01bd 49c0 043e
000001e0: dc17 b83d 7309 51bc 1630 28be 662c cbbd
000001f0: d36f e33d 02ec a8bc 7777 3d3d c6cc 113e
00000200: 1025 7cbb 51b6 22be 451e 693d f321 2d3d
00000210: 2e25 58be 0651 933d 6dda 723d d70a ec3d
00000220: 2969 cdbd c1c9 d63d dbc1 4f3c a291 ebbc
00000230: 8a95 7ebd 907d cebc 702b 13be 57b4 a9bd
00000240: ed79 b8bd 6fd3 0fbd 5544 fc3d 7859 b73d
00000250: b39b 9d3d 358b e2bd 76e0 d53d 8ea5 8d3c
00000260: d327 45bd dbd9 a23d 5e23 863c 56c7 ca3d
00000270: b821 bbbd bac7 6b3d c948 3b3e 2b62 fd3c
00000280: 6517 e6bc 8840 abbd 2f81 8c3d 68c2 87bd
00000290: 885d fc3d bc1c 703c 6812 df3d 99d1 593c
000002a0: eeac 6cbd 0935 efbd a128 db3d 646b b93d
000002b0: 2a6b 5c3d af3f 99bd c51c 6bbd ddfe 9c3b
000002c0: da3b da3c 6f6f 543a 5839 823d ba04 06bd
000002d0: e10d 033b 64bb 9a3c 12e4 dfbd 250e afbb
000002e0: 5455 9e3d 3131 8fbd 830e d83d 9af0 28be
000002f0: bdf6 c1bc eaf6 853d 45fd 773d e73a f8bd
00000300: 3f73 1abe a110 293e fa1a 01be 783f 6dbd
00000310: 88bc 9d3c 7ebc 8a3d 35a8 e0bd d192 f3bb
00000320: ac27 f13d c2f8 643d 9807 9b3d a2e8 debb
00000330: 7df0 cf3d cfde 44be 3f4c a23c 6f88 9d3d
00000340: 31d8 9dbc 265b 1b3d 77fb fdbd 4b62 07bd
00000350: 3175 14bb a668 19be fbf7 95bc 726f 66bd
00000360: ddc3 e73d 2fad edba 5c25 f4bc 2bec e3bd
00000370: 39f8 2ebc 072c 39bd 5ae9 1bbe 75c9 363e
00000380: a1bb 40bd e5d4 6dbd 1c5d 903c 60a8 403d
00000390: 043d 8f3d 52ac 40bd 01a5 b93d b947 0bbe
000003a0: c666 5a3d 0fd1 5fbc 937d f43d 0757 e53c
000003b0: 32b2 3f3d 30a1 a33c afba 2b3e a627 833d
000003c0: c078 19be e711 e8bc 1099 9c3d 0a4b ee3d
000003d0: e0f3 03be b4e0 743c 1b11 483c 0844 9abd
000003e0: b13b 0dbe 8f21 ccbc d8ba a53d bb1b 3a3e
000003f0: 3b08 9ebd 543b c43c 1afe 3ebd 6daa d8bd

bias f4 [4]
-0.018102847 -0.012687501 0.058671836 -0.035141937
00000000: 6c4c 94bc 3cdf 4fbc e151 703d fef0 0fbd

weight f4 [64, 8]
-0.28400233 -0.02127958 0.22230992 -0.01561021 0.17223841 1.1421005 0.7319062 0.18054372
-0.20273851 -0.27724123 -0.59492797 -0.28703213 0.98127645 0.3554825 -0.3349866 0.17631537
0.00864884 -0.6896354 0.8290355 0.09319011 0.5553228 0.520896 0.5403867 0.61409646
0.0045499494 0.77516484 0.23156898 0.20718358 0.7886734 0.36969173 -0.69257873 -0.45884085
-0.6331197 0.26174986 0.83662933 0.439307 -0.8024971 0.886987 0.44062573 -0.48546296
0.18484212 0.87269396 -0.404555 -1.055236 0.5361935 -0.04117967 -0.77883685 -0.318771
0.4157052 0.60683584 -0.053041887 -0.6377088 0.6600323 -0.39270502 0.55657727 0.8539766
0.0072253332 -0.58005863 -0.14603178 -0.64360774 0.33221075 0.58838564 0.65497404 -0.2439049
-0.7783073 0.18273894 -0.14269033 -0.77047676 0.43374503 0.8719188 0.34245273 -0.19845064
-0.96040106 0.6437884 0.4552027 -0.35460517 -0.28018674 0.41008914 0.03949917 -0.27182895
0.47290224 0.05210633 1.005424 0.6185296 -0.82493514 0.10422302 0.23778689 0.6447767
-0.19544993 0.018555664 -0.5138539 -1.222639 1.2088535 0.12607943 -0.95002925 0.5714654
-0.25086576 -0.07748666 0.5842646 -0.82882506 0.50313425 -0.6475817 0.15322022 0.5150646
-0.43252057 -0.49041635 0.5458636 0.20475222 -0.43182936 -0.036119506 -0.087035745 0.7839999
0.23498106 0.26105466 0.36664665 -0.5612443 0.94086176 0.6767553 0.20320375 -0.8520846
0.1501916 -0.78920054 -0.9951535 0.06921848 -0.76008433 -0.32099003 0.66510624 -0.5680213
0.24138093 0.8109059 -0.27544868 -1.0220007 0.007170366 -0.1223849 -0.60536927 0.09087268
1.0873306 0.2957772 0.25505704 0.70351744 -0.6087733 0.17805164 -0.5377784 -0.60291064
0.96807605 0.10536031 0.68001634 0.617072 -0.62453264 0.53728753 0.493449 0.7368963
0.6494194 0.12717803 -0.6828417 -0.40655154 0.7747104 -0.40638575 -0.3760623 -1.0527747
0.33657277 -0.3869511 -0.77140033 -0.7809121 1.0906029 -0.41469422 0.29949683 -0.63281465
1.106531 0.26724485 0.82621497 0.7276265 0.39384663 -0.3777379 -0.48856387 0.6276985
0.20140792 0.2389162 -0.092355065 -0.4575154 -0.22037955 0.991395 0.6176299 -0.3325979
0.3510289 0.0014347888 0.015907016 -0.06041045 1.0840596 0.35229895 -0.8877543 0.5785279
-0.023979537 -0.8921473 -1.0555383 -0.22332756 0.1988746 -0.36431324 -0.1857954 0.00017678524
0.57435817 0.36961842 -0.3501132 -0.5875862 0.7650059 0.33645853 0.77033854 -0.51104516
-0.15223244 0.5741217 1.0216258 -0.062297817 0.8624227 0.06646296 -0.43241543 -0.07884271
1.0411433 0.06752291 -0.680159 0.31778103 0.45999455 0.91741216 0.6183196 -0.22269732
0.6448506 0.5063831 0.7811138 -1.2388898 -0.15540929 0.71853095 -0.68693584 -0.5553784
0.10903444 0.763216 -0.73052365 -0.4718336 0.41709557 -0.104107134 0.15203594 0.37409043
-0.52642506 0.90787596 -0.7194962 -0.19569393 0.17499097 -0.74734277 -0.86694145 0.011206044
-0.7779005 0.4553037 1.2060286 -0.5744771 1.2233889 -0.50472426 -0.85740346 -0.14941092
00000000: c168 91be 8452 aebc 36a5 633e f7c1 7fbc
00000010: 445f 303e 5930 923f 345e 3b3f 74e0 383e
00000020: af9a 4fbe 90f2 8dbe 334d 18bf e0f5 92be
00000030: ef34 7b3f cd01 b63e 5d83 abbe 048c 343e
00000040: ddb3 0d3c f28b 30bf ac3b 543f 75da be3d
00000050: a329 0e3f 7159 053f c856 0a3f 6d35 1d3f
00000060: be17 953b 3471 463f 6b20 6d3e ef27 543e
00000070: 80e6 493f 3c48 bd3e d74c 31bf 30ed eabe
00000080: 2214 22bf 1404 863e 572d 563f d9ec e03e
00000090: 7370 4dbf 9411 633f b299 e13e 9a8e f8be
000000a0: 4147 3d3e df68 5f3f d521 cfbe f911 87bf
000000b0: fa43 093f 03ac 28bd da61 47bf f435 a3be
000000c0: 50d7 d43e 9859 1b3f 7342 59bd e240 23bf
000000d0: e0f7 283f a210 c9be d97b 0e3f 369e 5a3f
000000e0: 7dc2 ec3b b97e 14bf 5b89 15be 7ac3 24bf
000000f0: 8717 aa3e 71a0 163f 61ac 273f 35c2 79be
00000100: 263f 47bf eb1f 3b3e 6a1d 12be f73d 45bf
00000110: d413 de3e 1236 5f3f f755 af3e a536 4bbe
00000120: d8dc 75bf 51cf 243f 5410 e93e cf8e b5be
00000130: a374 8fbe 34f7 d13e e2c9 213d 2a2d 8bbe
00000140: 3e20 f23e 726d 553d bcb1 803f f557 1e3f
00000150: f32e 53bf e172 d53d 687e 733e 1610 253f
00000160: 0724 48be 0c02 983c ee8b 03bf 6f7f 9cbf
00000170: b6bb 9a3f f71a 013e 1e35 73bf 8e4b 123f
00000180: 7a71 80be 53b1 9ebd 5d92 153f e12d 54bf
00000190: 68cd 003f eac7 25bf c3e5 1c3e 46db 033f
000001a0: 5673 ddbe da17 fbbe b8bd 0b3f 91aa 513e
000001b0: bd18 ddbe 0cf2 13bd cc3f b2bd 38b4 483f
000001c0: e09e 703e f5a8 853e 1cb9 bb3e b5ad 0fbf
000001d0: 51dc 703f d63f 2d3f a514 503e 3722 5abf
000001e0: d4cb 193e 0c09 4abf 61c2 7ebf 6bc2 8d3d
000001f0: e394 42bf ce58 a4be 6744 2a3f d869 11bf
00000200: 902c 773e 8797 4f3f 9c07 8dbe ebd0 82bf
00000210: 64f5 ea3b efa4 fabd 7bf9 1abf 751b ba3d
00000220: a62d 8b3f 1c70 973e d696 823e b819 343f
00000230: 91d8 1bbf 2b53 363e d8ab 09bf 5a58 1abf
00000240: d5d3 773f 25c7 d73d 8d15 2e3f 6ef8 1d3f
00000250: 5fe1 1fbf ad8b 093f 59a5 fc3e 3ca5 3c3f
00000260: 5a40 263f f53a 023e b7ce 2ebf 8627 d0be
00000270: 6c53 463f cb11 d0be 3d8b c0be 52c1 86bf
00000280: 4453 ac3e 741e c6be 7e7a 45bf dbe9 47bf
00000290: e098 8b3f cd52 d4be a657 993e 2400 22bf
000002a0: cfa2 8d3f 51d4 883e d382 533f bb45 3a3f
000002b0: 44a6 c93e dd66 c1be 0b25 fabe d9b0 203f
000002c0: e13d 4e3e 73a6 743e a724 bdbd 753f eabe
000002d0: 2dab 61be 10cc 7d3f fe1c 1e3f 464a aabe
000002e0: 0fba b33e 860f bc3a 6e4f 823c f370 77bd
000002f0: 77c2 8a3f 8760 b43e de43 63bf 681a 143f
00000300: bc70 c4bc c463 64bf e11b 87bf fbaf 64be
00000310: c8a5 4b3e 4487 babe 2641 3ebe 6d5f 3939
00000320: 2309 133f a03e bd3e 0a42 b3be 0d6c 16bf
00000330: 6dd7 433f 4b44 ac3e e834 453f dbd3 02bf
00000340: d2e2 1bbe a4f9 123f a2c4 823f ff2b 7fbd
00000350: bcc7 5c3f bb1d 883d 8e65 ddbe 4978 a1bd
00000360: 2f44 853f 7449 8a3d e61e 2ebf 32b4 a23e
00000370: 6884 eb3e 86db 6a3f 314a 1e3f c40a 64be
00000380: ee14 253f 53a2 013f 13f7 473f f193 9ebf
00000390: 9d23 1fbe a5f1 373f 07db 2fbf 472d 0ebf
000003a0: 734d df3d 2062 433f 9903 3bbf 2c94 f1be
000003b0: 8d8d d53e 1f36 d5bd 4faf 1b3e c888 bf3e
000003c0: cbc3 06bf 8f6a 683f e730 38bf fd63 48be
000003d0: d530 333e db51 3fbf e0ef 5dbf 8e99 373c
000003e0: 7d24 47bf 911d e93e 255f 9a3f ee10 13bf
000003f0: 0298 9c3f 9c35 01bf cb7e 5bbf 2dff 18be

bias f4 [64]
-0.03466886 0.3281513 0.017799832 -0.17789043 0.032126367 0.25527754 0.27675253 0.24190252
0.30564854 -0.0023304324 0.2788196 0.38035062 0.1676065 0.024189742 0.12811327 0.22297418
0.2125538 0.20361502 0.23528478 0.17850973 0.31544274 0.09232464 0.2833525 -0.1612123
0.21631561 0.20452668 -0.17614502 0.16832499 0.2991912 0.1723932 0.16999187 -0.17828463
-0.04444235 0.13120547 -0.010853875 0.19244127 0.17943466 0.13756263 0.10073129 0.27422354
-0.06387078 0.024362097 0.15452549 0.17813328 0.1764012 0.20108053 0.0374454 0.18406269
0.06717266 0.30199966 0.08678847 -0.0707832 0.20611273 0.3752298 -0.0016842883 0.32346782
-0.16480571 0.009044148 0.24334149 -0.041434564 0.18389891 0.14976843 0.015273726 0.35031334
00000000: ef00 0ebd 7203 a83e f4d0 913c e928 36be
00000010: f096 033d bdb3 823e 82b2 8d3e 4bb5 773e
00000020: f77d 9c3e 2bba 18bb 71c1 8e3e 51bd c23e
00000030: 0aa1 2b3e 9129 c63c 2030 033e 5853 643e
00000040: b4a7 593e 7580 503e 7eee 703e 41cb 363e
00000050: b681 a13e b314 bd3d 9413 913e d614 25be
00000060: d781 5d3e 716f 513e 5c5f 34be 635d 2c3e
00000070: 972f 993e d887 303e 5912 2e3e 3f90 36be
00000080: 2e09 36bd ba5a 063e 74d4 31bc 530f 453e
00000090: b8bd 373e 38dd 0c3e 354c ce3d 0767 8c3e
000000a0: afce 82bd 0593 c73c ee3b 1e3e 9268 363e
000000b0: 84a2 343e 0ee8 4d3e 5960 193d ee7a 3c3e
000000c0: d291 893d b39f 9a3e 27be b13d c8f6 90bd
000000d0: 370f 533e 1f1e c03e 56c3 dcba 939d a53e
000000e0: d4c2 28be e82d 143c 832e 793e 4ab7 29bd
000000f0: ff4f 3c3e e55c 193e a63e 7a3c 455c b33e

weight f4 [64, 64]
-0.016928777 -0.24982747 0.19301796 -0.06498984 0.33090547 -0.05759494 0.13833368 0.28212655
-0.2900534 -0.37218186 0.33410254 -0.26221415 -0.25069964 0.009072972 -0.046672143 -0.102151155
-0.11914501 0.634783 0.071249135 0.092544734 0.18546802 0.38904837 0.21848989 -0.07749355
0.09170941 0.13703762 0.12583438 -0.027162837 0.09093826 0.2313315 0.19200532 -0.19896394
-0.00822538 0.03398317 0.24391674 0.21642661 0.21775195 0.14557385 0.08322167 -0.25759485
0.22471221 0.24091694 0.2354252 0.4269161 -0.0039671366 0.258625 0.1889204 0.1730584
0.25991285 0.04407162 -0.23394212 0.21114859 -0.19201231 0.29374653 0.2597423 -0.28592077
-0.3464025 0.26846263 0.06565926 0.19515507 0.19060363 0.17098628 -0.25344518 -0.12638551
0.40585908 -0.09064255 0.007142564 0.2771771 -0.15056266 0.3164669 -0.16917986 0.27853337
0.15916792 -0.29026437 -0.075815074 -0.13937102 -0.40916118 0.031846087 0.3534896 0.021314671
-0.25194937 -0.07203628 -0.018030234 -0.11345921 0.07213048 0.00043420473 -0.116929516 0.2090339
-0.17696162 0.0484127 -0.22697897 0.29366347 0.08633774 0.2207475 -0.36512217 -0.21216846
0.19466692 -0.00893999 -0.046927385 0.033271577 -0.11121591 0.29690486 0.26324546 0.10911712
0.13064475 -0.007958594 -0.107610896 -0.17335711 0.040556766 0.27179787 0.2847291 0.22153229
0.1832421 -0.27600724 -0.26430362 0.132345 0.34647593 -0.22012864 0.34484833 -0.0015510608
0.20576084 0.3376062 0.19836093 0.050503593 0.19787395 -0.17839392 -0.07953755 -0.03798488
-0.08253936 0.41570577 0.218164 0.3214905 0.074276626 0.22985968 0.44924745 0.13998955
0.5196755 0.29389128 0.002229254 0.19311966 0.13107684 -0.44636112 0.5376385 -0.15999296
0.26573524 -0.17077295 -0.49110416 0.2533782 0.43762153 -0.017203376 0.25754106 0.094258815
0.14075449 0.41059908 0.18186681 -0.03296754 0.42517328 0.052069023 -0.14466433 0.28449938
0.105814174 -0.05585118 -0.008748457 0.2306156 0.13977905 -0.051694144 -0.1300351 0.37176988
-0.40642878 0.108101696 0.1305933 -0.040934127 0.29421872 -0.26531622 -0.2290354 0.09915452
0.19811997 -0.04752389 0.10832883 0.0781874 0.2777701 0.13708867 0.4856426 0.4194226
0.43025643 -0.23956428 0.1239456 0.1916121 0.0396254 -0.0066260393 0.03378281 -0.1915763
-0.16037795 0.4330337 -0.11686506 -0.049678814 -0.29924688 0.47403398 0.2669599 0.5146571
0.061160132 0.28951 -0.39875832 0.44256622 0.27731103 -0.46240744 0.04265189 0.2671064
0.08164657 -0.35139728 -0.41861445 0.08560226 0.31886905 0.11694062 0.14058557 -0.03198443
0.20065136 0.510616 0.1979686 -0.22011156 0.290748 0.31264484 -0.115269095 0.34217685
0.13951729 -0.15206747 0.06925864 0.21635376 0.37230402 -0.13793029 0.32908028 0.13673352
-0.08825583 0.23638609 -0.01664277 -0.22594765 0.49644923 -0.27390873 0.026223268 0.006045974
0.11878777 0.19159836 0.2748312 0.05241943 0.3662171 0.44947746 0.53735054 0.48285654
0.23467268 0.2716888 0.09352755 0.27766427 -0.33506703 0.16495119 0.4390342 -0.1371482
00000000: 38ae 8abc c6d2 7fbe 80a6 453e 6519 85bd
00000010: 716c a93e ace8 6bbd 58a7 0d3e e472 903e
00000020: e181 94be 9f8e bebe 7d0f ab3e ef40 86be
00000030: b45b 80be cea6 143c 4a2b 3fbd a034 d1bd
00000040: 4d02 f4bd 2481 223f 11eb 913d 1888 bd3d
00000050: 54eb 3d3e 5931 c73e d0bb 5f3e f0b4 9ebd
00000060: 25d2 bb3d 9753 0c3e bada 003e 9984 debc
00000070: d73d ba3d 2ae2 6c3e 0b9d 443e 34bd 4bbe
00000080: bfc3 06bc f031 0b3d 4fc5 793e f09e 5d3e
00000090: 5efa 5e3e 5011 153e 1f70 aa3d 79e3 83be
000000a0: f51a 663e eeb2 763e 4e13 713e bf94 da3e
000000b0: c1fe 81bb 7f6a 843e 5974 413e 3936 313e
000000c0: 4c13 853e 7184 343d 868e 6fbe 5637 583e
000000d0: e09e 44be f265 963e f1fc 843e 3564 92be
000000e0: ab5b b1be ef73 893e 5d78 863d bbd6 473e
000000f0: 992d 433e 0717 2f3e 91c3 81be 346b 01be
00000100: c3cc cf3e cda2 b9bd 2b0c ea3b 28ea 8d3e
00000110: 192d 1abe f307 a23e 7c3d 2dbe ed9b 8e3e
00000120: eafc 223e 889d 94be ef44 9bbd 47b7 0ebe
00000130: 937d d1be 0b71 023d 97fc b43e 1b9c ae3c
00000140: 82ff 80be c287 93bd 24b4 93bc 4d5d e8bd
00000150: 25b9 933d f9a5 e339 be78 efbd fc0c 563e
00000160: 6d35 35be 654c 463d 2d6d 68be 0f5b 963e
00000170: d7d1 b03d a20b 623e 4bf1 babe b042 59be
00000180: c456 473e 0979 12bc ee36 40bd c747 083d
00000190: 2bc5 e3bd ea03 983e 1cc8 863e cc78 df3d
000001a0: bdc7 053e c364 02bc 1a63 dcbd 8784 31be
000001b0: da1e 263d 1729 8b3e 03c8 913e 5cd9 623e
000001c0: d1a3 3b3e d250 8dbe ce52 87be 7385 073e
000001d0: 4b65 b13e 6769 61be f68f b03e f74c cbba
000001e0: f8b2 523e b8da ac3e 211f 4b3e dbdc 4e3d
000001f0: 789f 4a3e e5ac 36be 95e4 a2bd 0996 1bbd
00000200: 650a a9bd 63d7 d43e 6266 5f3e 679a a43e
00000210: 581e 983d 5660 6b3e c303 e63e 6c59 0f3e
00000220: 7409 053f eb78 963e ad18 123b 29c1 453e
00000230: 0239 063e 7289 e4be ada2 093f 32d5 23be
00000240: 730e 883e 1bdf 2ebe 0172 fbbe caba 813e
00000250: ee0f e03e 18ee 8cbc 6cdc 833e c40a c13d
00000260: f221 103e 0b3a d23e 4b3b 3a3e f908 07bd
00000270: 50b0 d93e 5446 553d e322 14be e7a9 913e
00000280: 1ab5 d83d 35c4 64bd b055 0fbc 7f26 6c3e
00000290: 3d22 0f3e 3dbd 53bd ec27 05be 9f58 be3e
000002a0: 6f17 d0be 6c64 dd3d 40ba 053e 8baa 27bd
000002b0: d6a3 963e 87d7 87be 4288 6abe 8611 cb3d
000002c0: f6df 4a3e 69a8 42bd 81db dd3d b720 a03d
000002d0: e237 8e3e f960 0c3e 26a6 f83e 8fbe d63e
000002e0: 924a dc3e 5750 75be 31d7 fd3d f635 443e
000002f0: 3e4e 223d 3f1f d9bb d85f 0a3d 942c 44be
00000300: 1e3a 24be 98b6 dd3e f356 efbd 037c 4bbd
00000310: e336 99be 95b4 f23e f8ae 883e 91c0 033f
00000320: 0c83 7a3d a83a 943e 0d2a ccbe 0a98 e23e
00000330: b6fb 8d3e abc0 ecbe c0b3 2e3d 2cc2 883e
00000340: 5136 a73d 58ea b3be a254 d6be 3d50 af3d
00000350: ce42 a33e 907e ef3d aaf5 0f3e 1b02 03bd
00000360: 8d77 4d3e bbb7 023f 48b8 4a3e ed64 61be
00000370: ecdc 943e fc12 a03e 3412 ecbd ce31 af3e
00000380: 9fdd 0e3e 93b7 1bbe 79d7 8d3d d78b 5d3e
00000390: a29e be3e 993d 0dbe 367d a83e df03 0c3e
000003a0: 79bf b4bd 320f 723e 6b56 88bc d25e 67be
000003b0: 982e fe3e c43d 8cbe 2ed2 d63c 4e1d c63b
000003c0: 0147 f33d 5c32 443e adb6 8c3e c2b5 563d
000003d0: cf80 bb3e e921 e63e ce8f 093f f938 f73e
000003e0: 094e 703e cb1a 8b3e 5f8b bf3d 032a 8e3e
000003f0: e88d abbe f7e8 283e 17c9 e03e 9470 0cbe

bias f4 [64]
0.06295768 0.021074135 0.16635123 0.23997408 0.2563789 0.07306888 0.09824344 0.16319086
0.08884056 0.18401365 0.009490738 0.034345012 -0.034783795 0.058964524 0.08170959 0.12279649
0.0408284 0.05229331 0.23473445 0.029000692 0.0691517 0.06301154 0.007330105 0.064928696
0.026472006 -0.029873688 0.18539053 0.04570774 0.1513851 0.11598511 0.019688701 0.011510538
0.1270524 0.23167373 -0.00056588004 0.060943168 -0.0059295655 0.018308273 0.11663576 0.04956126
0.20527235 0.15456545 0.15587378 -0.07380999 0.19688903 0.20283386 0.010708373 0.24459009
0.04700224 -0.030545715 0.039530747 0.086684465 0.16596305 0.14427803 0.15395314 0.24712126
0.10105503 0.022604784 0.09973186 0.2735907 0.03836024 0.12989846 0.10238645 0.114601314
00000000: f5ef 803d aaa3 ac3c fa57 2a3e c4bb 753e
00000010: 1844 833e 23a5 953d db33 c93d 811b 273e
00000020: 0af2 b53d 136e 3c3e 0a7f 1b3c 5bad 0c3d
00000030: 7479 0ebd c984 713d 5c57 a73d ba7c fb3d
00000040: ae3b 273d 8331 563d 3a5e 703e dc92 ed3c
00000050: 689f 8d3d 320c 813d 6131 f03b 56f9 843d
00000060: d2db d83c aab9 f4bc 04d7 3d3e 0a38 3b3d
00000070: b204 1b3e 9a89 ed3d 334a a13c b296 3c3c
00000080: 061a 023e e13b 6d3e 9157 14ba 8b9f 793d
00000090: cd4c c2bb 3bfb 953c bbde ee3d bf00 4b3d
000000a0: ea32 523e 6846 1e3e 609d 1f3e b129 97bd
000000b0: 479d 493e aeb3 4f3e 2c72 2f3c d375 7a3e
000000c0: 6c85 403d 023b fabc feea 213d a087 b13d
000000d0: 38f2 293e 9fbd 133e e4a5 1d3e 5b0d 7d3e
000000e0: f1f5 ce3d ab2d b93c 3840 cc3d 1514 8c3e
000000f0: a11f 1d3d 1a04 053e fdaf d13d 18b4 ea3d

weight f4 [1, 64]
-0.34075984 -0.24320638 0.47867227 0.5047274 0.47954616 0.42796454 -0.52062005 0.5748637
-0.52692467 0.6742129 -0.40175378 -0.27375907 0.31463388 -0.647872 -0.3808445 -0.28362787
-0.45051616 -0.1996014 0.5724273 -0.41926682 -0.4656743 -0.3864916 -0.015665796 -0.36083353
-0.20818008 0.08004616 0.3083938 -0.28475976 0.6319334 0.6089299 -0.12967724 -0.36669746
0.39906293 0.38066983 -0.32545885 0.27470604 -0.09482355 -0.26709548 0.36194894 -0.20848936
0.65900445 0.3757501 0.31976017 -0.19444273 0.68178225 0.5289762 -0.17008416 0.42312223
-0.37512845 0.20551239 -0.16843726 0.33615008 0.5323312 0.45487544 0.4748935 0.566193
-0.54231757 -0.4459364 0.334115 0.44418496 -0.24107094 0.5096081 0.346318 -0.5867047
00000000: 1378 aebe 180b 79be 8814 f53e d135 013f
00000010: 1387 f53e 2b1e db3e 5b47 05bf 442a 133f
00000020: 89e4 06bf 3799 2c3f acb2 cdbe 262a 8cbe
00000030: b117 a13e f0da 25bf 0dfe c2be ac37 91be
00000040: 0eaa e6be 4f64 4cbe 988a 123f 24aa d6be
00000050: dd6c eebe 3ae2 c5be 8e55 80bc 2cbf b8be
00000060: 292d 55be 3eef a33d cbe5 9d3e 08cc 91be
00000070: 63c6 213f d4e2 1b3f 1cca 04be c5bf bbbe
00000080: fa51 cc3e 28e7 c23e 8ba2 a6be 45a6 8c3e
00000090: d932 c2bd bdc0 88be 5f51 b93e 3c7e 55be
000000a0: 84b4 283f 5162 c03e 9bb7 a33e ff1b 47be
000000b0: 4889 2e3f fc6a 073f 8b2a 2ebe 7aa3 d83e
000000c0: d610 c0be d771 523e d17a 2cbe dd1b ac3e
000000d0: dc46 083f 6fe5 e83e 3e25 f33e 06f2 103f
000000e0: 53d5 0abf c751 e4be 1f11 ab3e 366c e33e
000000f0: 4ddb 76be ad75 023f 9850 b13e 4732 16bf
